…
05 Oct 10:53    INFO  Build [SequentialDataLoader] for [train] with format [InputType.POINTWISE]
05 Oct 10:53    INFO  [train] No Negative Sampling
05 Oct 10:53    INFO  [train] batch_size = [512], shuffle = [True]

05 Oct 10:53    INFO  Build [SequentialFullDataLoader] for [evaluation] with format [InputType.POINTWISE]
05 Oct 10:53    INFO  Evaluation Setting:
	Group by user_id
	Ordering: {'strategy': 'by', 'field': 'timestamp', 'ascending': True}
	Splitting: {'strategy': 'loo', 'leave_one_num': 2}
	Negative Sampling: {'strategy': 'full', 'distribution': 'uniform'}
05 Oct 10:53    INFO  [evaluation] batch_size = [256], shuffle = [False]

05 Oct 10:53    INFO  CL4SRec(
  (item_embedding): Embedding(12103, 64, padding_idx=0)
  (position_embedding): Embedding(50, 64)
  (trm_encoder): TransformerEncoder(
    (layer): ModuleList(
      (0-1): 2 x TransformerLayer(
        (multi_head_attention): MultiHeadAttention(
          (query): Linear(in_features=64, out_features=64, bias=True)
          (key): Linear(in_features=64, out_features=64, bias=True)
          (value): Linear(in_features=64, out_features=64, bias=True)
          (attn_dropout): Dropout(p=0.5, inplace=False)
          (dense): Linear(in_features=64, out_features=64, bias=True)
          (LayerNorm): LayerNorm((64,), eps=1e-12, elementwise_affine=True)
          (out_dropout): Dropout(p=0.5, inplace=False)
        )
        (feed_forward): FeedForward(
          (dense_1): Linear(in_features=64, out_features=256, bias=True)
          (dense_2): Linear(in_features=256, out_features=64, bias=True)
          (LayerNorm): LayerNorm((64,), eps=1e-12, elementwise_affine=True)
          (dropout): Dropout(p=0.5, inplace=False)
        )
      )
    )
  )
  (LayerNorm): LayerNorm((64,), eps=1e-12, elementwise_affine=True)
  (dropout): Dropout(p=0.5, inplace=False)
  (loss_fct): CrossEntropyLoss()
  (nce_fct): CrossEntropyLoss()
)
Trainable parameters: 877888
Train     0: 100% 257/257 [00:40<00:00,  6.39it/s]
05 Oct 10:54    INFO  epoch 0 training [time: 40.44s, train_loss1: 2491.6679, train_loss2: 1401.5769, train_loss3: -2998.8566]
Evaluate   : 100% 88/88 [00:00<00:00, 156.30it/s]
…
